Initializing PruneAndTrain Object.....
length of samples:167
Start to pruning.....
Current Testing Performance - Val: Loss nan  Acc(top1) 96.552%
+----------------------------------------------------------------------------+
+                           Pytorch Model Summary                            +
------------------------------------------------------------------------------
   Layer (type)       Input Shape      Output Shape    Param #      FLOPS #
==============================================================================
       Conv2d-1     (1, 1, 30225)     (8, 1, 15109)         72    1,087,848
  BatchNorm2d-2     (8, 1, 15109)     (8, 1, 15109)         16            0
         ReLu-3     (8, 1, 15109)     (8, 1, 15109)          0      120,872
       Conv2d-4     (8, 1, 15109)     (64, 1, 7553)      2,560   19,335,680
  BatchNorm2d-5     (64, 1, 7553)     (64, 1, 7553)        128            0
         ReLu-6     (64, 1, 7553)     (64, 1, 7553)          0      483,392
    MaxPool2d-7     (64, 1, 7553)      (64, 1, 151)          0      483,200
      Permute-8      (64, 1, 151)      (1, 64, 151)          0            0
       Conv2d-9      (1, 64, 151)     (32, 64, 151)        288    2,783,232
 BatchNorm2d-10     (32, 64, 151)     (32, 64, 151)         64            0
        ReLu-11     (32, 64, 151)     (32, 64, 151)          0      309,248
   MaxPool2d-12     (32, 64, 151)      (32, 32, 75)          0      307,200
      Conv2d-13      (32, 32, 75)      (64, 32, 75)     18,432   44,236,800
 BatchNorm2d-14      (64, 32, 75)      (64, 32, 75)        128            0
        ReLu-15      (64, 32, 75)      (64, 32, 75)          0      153,600
      Conv2d-16      (64, 32, 75)      (64, 32, 75)     36,864   88,473,600
 BatchNorm2d-17      (64, 32, 75)      (64, 32, 75)        128            0
        ReLu-18      (64, 32, 75)      (64, 32, 75)          0      153,600
   MaxPool2d-19      (64, 32, 75)      (64, 16, 37)          0      151,552
      Conv2d-20      (64, 16, 37)     (128, 16, 37)     73,728   43,646,976
 BatchNorm2d-21     (128, 16, 37)     (128, 16, 37)        256            0
        ReLu-22     (128, 16, 37)     (128, 16, 37)          0       75,776
      Conv2d-23     (128, 16, 37)     (128, 16, 37)    147,456   87,293,952
 BatchNorm2d-24     (128, 16, 37)     (128, 16, 37)        256            0
        ReLu-25     (128, 16, 37)     (128, 16, 37)          0       75,776
   MaxPool2d-26     (128, 16, 37)      (128, 8, 18)          0       73,728
      Conv2d-27      (128, 8, 18)      (256, 8, 18)    294,912   42,467,328
 BatchNorm2d-28      (256, 8, 18)      (256, 8, 18)        512            0
        ReLu-29      (256, 8, 18)      (256, 8, 18)          0       36,864
      Conv2d-30      (256, 8, 18)      (256, 8, 18)    589,824   84,934,656
 BatchNorm2d-31      (256, 8, 18)      (256, 8, 18)        512            0
        ReLu-32      (256, 8, 18)      (256, 8, 18)          0       36,864
   MaxPool2d-33      (256, 8, 18)       (256, 4, 9)          0       36,864
      Conv2d-34       (256, 4, 9)       (512, 4, 9)  1,179,648   42,467,328
 BatchNorm2d-35       (512, 4, 9)       (512, 4, 9)      1,024            0
        ReLu-36       (512, 4, 9)       (512, 4, 9)          0       18,432
      Conv2d-37       (512, 4, 9)       (512, 4, 9)  2,359,296   84,934,656
 BatchNorm2d-38       (512, 4, 9)       (512, 4, 9)      1,024            0
        ReLu-39       (512, 4, 9)       (512, 4, 9)          0       18,432
   MaxPool2d-40       (512, 4, 9)       (512, 2, 4)          0       16,384
      Conv2d-41       (512, 2, 4)         (2, 2, 4)      1,024        8,192
 BatchNorm2d-42         (2, 2, 4)         (2, 2, 4)          4            0
        ReLu-43         (2, 2, 4)         (2, 2, 4)          0           16
   AvgPool2d-44         (2, 2, 4)         (2, 1, 1)          0           16
     Flatten-45         (2, 1, 1)            (1, 2)          0            0
      Linear-46            (1, 2)            (1, 2)          6            6
     Softmax-47            (1, 2)            (1, 2)          0            2
==============================================================================
Total Params: 4,708,162
Total FLOPs : 544,222,072
------------------------------------------------------------------------------
Input size (MB) : 0.12
Params size (MB): 17.96
Total size (MB) : 18.08
------------------------------------------------------------------------------

Total Channels: 2026, Prunable: 2026, Non-Prunable: 0
…
Current Testing Performance - Val: Loss nan  Acc(top1) 82.759%
Current Testing Performance - Val: Loss nan  Acc(top1) 82.759%
Finished fine tuning.
Iteration 1619/1621 finished in 0m06s
Total channels prunned so far: 1619
+----------------------------------------------------------------------------+
+                           Pytorch Model Summary                            +
------------------------------------------------------------------------------
   Layer (type)       Input Shape      Output Shape    Param #      FLOPS #
==============================================================================
       Conv2d-1     (1, 1, 30225)     (8, 1, 15109)         72    1,087,848
  BatchNorm2d-2     (8, 1, 15109)     (8, 1, 15109)         16            0
         ReLu-3     (8, 1, 15109)     (8, 1, 15109)          0      120,872
       Conv2d-4     (8, 1, 15109)     (32, 1, 7553)      1,280    9,667,840
  BatchNorm2d-5     (32, 1, 7553)     (32, 1, 7553)         64            0
         ReLu-6     (32, 1, 7553)     (32, 1, 7553)          0      241,696
    MaxPool2d-7     (32, 1, 7553)      (32, 1, 151)          0      241,600
      Permute-8      (32, 1, 151)      (1, 32, 151)          0            0
       Conv2d-9      (1, 32, 151)     (18, 32, 151)        162      782,784
 BatchNorm2d-10     (18, 32, 151)     (18, 32, 151)         36            0
        ReLu-11     (18, 32, 151)     (18, 32, 151)          0       86,976
   MaxPool2d-12     (18, 32, 151)      (18, 16, 75)          0       86,400
      Conv2d-13      (18, 16, 75)      (32, 16, 75)      5,184    6,220,800
 BatchNorm2d-14      (32, 16, 75)      (32, 16, 75)         64            0
        ReLu-15      (32, 16, 75)      (32, 16, 75)          0       38,400
      Conv2d-16      (32, 16, 75)      (38, 16, 75)     10,944   13,132,800
 BatchNorm2d-17      (38, 16, 75)      (38, 16, 75)         76            0
        ReLu-18      (38, 16, 75)      (38, 16, 75)          0       45,600
   MaxPool2d-19      (38, 16, 75)       (38, 8, 37)          0       44,992
      Conv2d-20       (38, 8, 37)       (39, 8, 37)     13,338    3,948,048
 BatchNorm2d-21       (39, 8, 37)       (39, 8, 37)         78            0
        ReLu-22       (39, 8, 37)       (39, 8, 37)          0       11,544
      Conv2d-23       (39, 8, 37)       (40, 8, 37)     14,040    4,155,840
 BatchNorm2d-24       (40, 8, 37)       (40, 8, 37)         80            0
        ReLu-25       (40, 8, 37)       (40, 8, 37)          0       11,840
   MaxPool2d-26       (40, 8, 37)       (40, 4, 18)          0       11,520
      Conv2d-27       (40, 4, 18)       (49, 4, 18)     17,640    1,270,080
 BatchNorm2d-28       (49, 4, 18)       (49, 4, 18)         98            0
        ReLu-29       (49, 4, 18)       (49, 4, 18)          0        3,528
      Conv2d-30       (49, 4, 18)       (50, 4, 18)     22,050    1,587,600
 BatchNorm2d-31       (50, 4, 18)       (50, 4, 18)        100            0
        ReLu-32       (50, 4, 18)       (50, 4, 18)          0        3,600
   MaxPool2d-33       (50, 4, 18)        (50, 2, 9)          0        3,600
      Conv2d-34        (50, 2, 9)        (49, 2, 9)     22,050      396,900
 BatchNorm2d-35        (49, 2, 9)        (49, 2, 9)         98            0
        ReLu-36        (49, 2, 9)        (49, 2, 9)          0          882
      Conv2d-37        (49, 2, 9)        (50, 2, 9)     22,050      396,900
 BatchNorm2d-38        (50, 2, 9)        (50, 2, 9)        100            0
        ReLu-39        (50, 2, 9)        (50, 2, 9)          0          900
   MaxPool2d-40        (50, 2, 9)        (50, 1, 4)          0          800
      Conv2d-41        (50, 1, 4)         (2, 1, 4)        100          400
 BatchNorm2d-42         (2, 1, 4)         (2, 1, 4)          4            0
        ReLu-43         (2, 1, 4)         (2, 1, 4)          0            8
   AvgPool2d-44         (2, 1, 4)         (2, 1, 1)          0            8
     Flatten-45         (2, 1, 1)            (1, 2)          0            0
      Linear-46            (1, 2)            (1, 2)          6            6
     Softmax-47            (1, 2)            (1, 2)          0            2
==============================================================================
Total Params: 129,730
Total FLOPs : 43,602,614
------------------------------------------------------------------------------
Input size (MB) : 0.12
Params size (MB): 0.49
Total size (MB) : 0.61
------------------------------------------------------------------------------