…
Start to pruning.....
pruning algorithm is <th.resources.pruning_tools.filter_pruning.Taylor object at 0x7f462e6fe530>
Current Testing Performance - Val: Loss nan  Acc(top1) 97.727%
+----------------------------------------------------------------------------+
+                           Pytorch Model Summary                            +
------------------------------------------------------------------------------
   Layer (type)       Input Shape      Output Shape    Param #      FLOPS #
==============================================================================
       Conv2d-1     (1, 1, 30225)     (8, 1, 15109)         72    1,087,848
  BatchNorm2d-2     (8, 1, 15109)     (8, 1, 15109)         16            0
         ReLu-3     (8, 1, 15109)     (8, 1, 15109)          0      120,872
       Conv2d-4     (8, 1, 15109)     (64, 1, 7553)      2,560   19,335,680
  BatchNorm2d-5     (64, 1, 7553)     (64, 1, 7553)        128            0
         ReLu-6     (64, 1, 7553)     (64, 1, 7553)          0      483,392
    MaxPool2d-7     (64, 1, 7553)      (64, 1, 151)          0      483,200
      Permute-8      (64, 1, 151)      (1, 64, 151)          0            0
       Conv2d-9      (1, 64, 151)     (32, 64, 151)        288    2,783,232
 BatchNorm2d-10     (32, 64, 151)     (32, 64, 151)         64            0
        ReLu-11     (32, 64, 151)     (32, 64, 151)          0      309,248
   MaxPool2d-12     (32, 64, 151)      (32, 32, 75)          0      307,200
      Conv2d-13      (32, 32, 75)      (64, 32, 75)     18,432   44,236,800
 BatchNorm2d-14      (64, 32, 75)      (64, 32, 75)        128            0
        ReLu-15      (64, 32, 75)      (64, 32, 75)          0      153,600
      Conv2d-16      (64, 32, 75)      (64, 32, 75)     36,864   88,473,600
 BatchNorm2d-17      (64, 32, 75)      (64, 32, 75)        128            0
        ReLu-18      (64, 32, 75)      (64, 32, 75)          0      153,600
   MaxPool2d-19      (64, 32, 75)      (64, 16, 37)          0      151,552
      Conv2d-20      (64, 16, 37)     (128, 16, 37)     73,728   43,646,976
 BatchNorm2d-21     (128, 16, 37)     (128, 16, 37)        256            0
        ReLu-22     (128, 16, 37)     (128, 16, 37)          0       75,776
      Conv2d-23     (128, 16, 37)     (128, 16, 37)    147,456   87,293,952
 BatchNorm2d-24     (128, 16, 37)     (128, 16, 37)        256            0
        ReLu-25     (128, 16, 37)     (128, 16, 37)          0       75,776
   MaxPool2d-26     (128, 16, 37)      (128, 8, 18)          0       73,728
      Conv2d-27      (128, 8, 18)      (256, 8, 18)    294,912   42,467,328
 BatchNorm2d-28      (256, 8, 18)      (256, 8, 18)        512            0
        ReLu-29      (256, 8, 18)      (256, 8, 18)          0       36,864
      Conv2d-30      (256, 8, 18)      (256, 8, 18)    589,824   84,934,656
 BatchNorm2d-31      (256, 8, 18)      (256, 8, 18)        512            0
        ReLu-32      (256, 8, 18)      (256, 8, 18)          0       36,864
   MaxPool2d-33      (256, 8, 18)       (256, 4, 9)          0       36,864
      Conv2d-34       (256, 4, 9)       (512, 4, 9)  1,179,648   42,467,328
 BatchNorm2d-35       (512, 4, 9)       (512, 4, 9)      1,024            0
        ReLu-36       (512, 4, 9)       (512, 4, 9)          0       18,432
      Conv2d-37       (512, 4, 9)       (512, 4, 9)  2,359,296   84,934,656
 BatchNorm2d-38       (512, 4, 9)       (512, 4, 9)      1,024            0
        ReLu-39       (512, 4, 9)       (512, 4, 9)          0       18,432
   MaxPool2d-40       (512, 4, 9)       (512, 2, 4)          0       16,384
      Conv2d-41       (512, 2, 4)         (2, 2, 4)      1,024        8,192
 BatchNorm2d-42         (2, 2, 4)         (2, 2, 4)          4            0
        ReLu-43         (2, 2, 4)         (2, 2, 4)          0           16
   AvgPool2d-44         (2, 2, 4)         (2, 1, 1)          0           16
     Flatten-45         (2, 1, 1)            (1, 2)          0            0
      Linear-46            (1, 2)            (1, 2)          6            6
     Softmax-47            (1, 2)            (1, 2)          0            2
==============================================================================
Total Params: 4,708,162
Total FLOPs : 544,222,072
------------------------------------------------------------------------------
Input size (MB) : 0.12
Params size (MB): 17.96
Total size (MB) : 18.08
------------------------------------------------------------------------------

Total Channels: 2026, Prunable: 2026, Non-Prunable: 0
…
Current Testing Performance - Val: Loss nan  Acc(top1) 84.091%
Current Testing Performance - Val: Loss nan  Acc(top1) 85.227%
Finished fine tuning.
Iteration 1619/1621 finished in 0m09s
Total channels prunned so far: 1619
+----------------------------------------------------------------------------+
+                           Pytorch Model Summary                            +
------------------------------------------------------------------------------
   Layer (type)       Input Shape      Output Shape    Param #      FLOPS #
==============================================================================
       Conv2d-1     (1, 1, 30225)     (5, 1, 15109)         45      679,905
  BatchNorm2d-2     (5, 1, 15109)     (5, 1, 15109)         10            0
         ReLu-3     (5, 1, 15109)     (5, 1, 15109)          0       75,545
       Conv2d-4     (5, 1, 15109)     (32, 1, 7553)        800    6,042,400
  BatchNorm2d-5     (32, 1, 7553)     (32, 1, 7553)         64            0
         ReLu-6     (32, 1, 7553)     (32, 1, 7553)          0      241,696
    MaxPool2d-7     (32, 1, 7553)      (32, 1, 151)          0      241,600
      Permute-8      (32, 1, 151)      (1, 32, 151)          0            0
       Conv2d-9      (1, 32, 151)      (9, 32, 151)         81      391,392
 BatchNorm2d-10      (9, 32, 151)      (9, 32, 151)         18            0
        ReLu-11      (9, 32, 151)      (9, 32, 151)          0       43,488
   MaxPool2d-12      (9, 32, 151)       (9, 16, 75)          0       43,200
      Conv2d-13       (9, 16, 75)      (16, 16, 75)      1,296    1,555,200
 BatchNorm2d-14      (16, 16, 75)      (16, 16, 75)         32            0
        ReLu-15      (16, 16, 75)      (16, 16, 75)          0       19,200
      Conv2d-16      (16, 16, 75)      (23, 16, 75)      3,312    3,974,400
 BatchNorm2d-17      (23, 16, 75)      (23, 16, 75)         46            0
        ReLu-18      (23, 16, 75)      (23, 16, 75)          0       27,600
   MaxPool2d-19      (23, 16, 75)       (23, 8, 37)          0       27,232
      Conv2d-20       (23, 8, 37)       (33, 8, 37)      6,831    2,021,976
 BatchNorm2d-21       (33, 8, 37)       (33, 8, 37)         66            0
        ReLu-22       (33, 8, 37)       (33, 8, 37)          0        9,768
      Conv2d-23       (33, 8, 37)       (29, 8, 37)      8,613    2,549,448
 BatchNorm2d-24       (29, 8, 37)       (29, 8, 37)         58            0
        ReLu-25       (29, 8, 37)       (29, 8, 37)          0        8,584
   MaxPool2d-26       (29, 8, 37)       (29, 4, 18)          0        8,352
      Conv2d-27       (29, 4, 18)       (56, 4, 18)     14,616    1,052,352
 BatchNorm2d-28       (56, 4, 18)       (56, 4, 18)        112            0
        ReLu-29       (56, 4, 18)       (56, 4, 18)          0        4,032
      Conv2d-30       (56, 4, 18)       (47, 4, 18)     23,688    1,705,536
 BatchNorm2d-31       (47, 4, 18)       (47, 4, 18)         94            0
        ReLu-32       (47, 4, 18)       (47, 4, 18)          0        3,384
   MaxPool2d-33       (47, 4, 18)        (47, 2, 9)          0        3,384
      Conv2d-34        (47, 2, 9)        (65, 2, 9)     27,495      494,910
 BatchNorm2d-35        (65, 2, 9)        (65, 2, 9)        130            0
        ReLu-36        (65, 2, 9)        (65, 2, 9)          0        1,170
      Conv2d-37        (65, 2, 9)        (90, 2, 9)     52,650      947,700
 BatchNorm2d-38        (90, 2, 9)        (90, 2, 9)        180            0
        ReLu-39        (90, 2, 9)        (90, 2, 9)          0        1,620
   MaxPool2d-40        (90, 2, 9)        (90, 1, 4)          0        1,440
      Conv2d-41        (90, 1, 4)         (2, 1, 4)        180          720
 BatchNorm2d-42         (2, 1, 4)         (2, 1, 4)          4            0
        ReLu-43         (2, 1, 4)         (2, 1, 4)          0            8
   AvgPool2d-44         (2, 1, 4)         (2, 1, 1)          0            8
     Flatten-45         (2, 1, 1)            (1, 2)          0            0
      Linear-46            (1, 2)            (1, 2)          6            6
     Softmax-47            (1, 2)            (1, 2)          0            2
==============================================================================
Total Params: 140,427
Total FLOPs : 22,177,258
------------------------------------------------------------------------------
Input size (MB) : 0.12
Params size (MB): 0.54
Total size (MB) : 0.65
------------------------------------------------------------------------------